app/src/main/assets/model.tflite (tflite, 8904 bytes, 6 tensors)

sequential/dense_2/MatMul f4 [8, 32]
00000000: 7c42 963e bce0 703e 579a 8e3e e20d 8bbe
00000010: 07e6 b1be 17c7 2f3e bcd3 8dbe 70b8 76be
00000020: ad2d 293e fefc b5be 7177 5ebe 9b96 163e
00000030: 58ce 1ebe 706a 193e 0865 3bbe 7c99 73be
00000040: 30d6 84be b455 55be 03b2 653e d762 b13e
00000050: 3703 f13c 6418 abbe 5295 933e 4532 c6be
00000060: 8f43 043e 8e8b a63e d629 dfbd b625 433e
00000070: 4c49 003e 4b37 b83e 47c5 a63e 9358 8fbe
00000080: 6896 c13e da7d 343e 6e39 383d 9882 8fbe
00000090: b48e 24be cbcd 9f3e d23e babe 2823 fbbd
000000a0: e2f8 91be f781 433e f433 82bc bc97 263c
000000b0: aca5 9a3c 9dd1 313e 9763 7e3e 0519 9f3e
000000c0: d555 0e3e 512a 7d3d 86d9 953e 6321 c7be
000000d0: 1adc b0bd e62b 8fbe a91c 8dbd 374a 933e
000000e0: c619 923e bbf6 bfbe 6aa2 af3d 51bc afbe
000000f0: 1016 70be 686e 723e a133 803e 4dca 593e
00000100: 02be 39bd 3123 44be e0b8 46be 20ed 94be
00000110: 2bca 963e 6361 a63e 6c8d 44bd afe8 0c3e
00000120: 3af9 13be 9d90 ab3e 55f1 2dbe 3fec 04be
00000130: 1851 b93d 6f3b 05be a8f4 463e 7170 963e
00000140: 3715 a63e 47ee c33e faf5 aa3e 57dc 1e3e
00000150: d48e 633e ca2c 85be 93e2 c3bd 9af3 acbe
00000160: 1226 abbe 4f65 4f3e 40ff 11be 676c 5bbe
00000170: 5e77 96be 8281 873e 9b8b a13c fb36 873d
00000180: 9098 9abe e3d2 20be 616c b73e 931f a3be
00000190: 1f3a 383d fa40 ae3e 573c 56be 675a c23e
000001a0: e7a8 1e3e dba6 c13e da0a b03d dd51 693d
000001b0: 4362 9b3e fa85 94be db9f 32be 883f a5be
000001c0: 16da 003e 685c 0d3e 517a 5d3e 3980 073e
000001d0: a195 c0be 9b13 833e 89ee b13e bba3 a43d
000001e0: 1789 aa3d e7e9 83bd a91f 52be 2975 bfbd
000001f0: 1b68 b63d aa5a 9fbe fde0 46be 15a9 26be
00000200: 708d ebbd e144 323e 16ae a6be ddb8 9d3e
00000210: b765 323e 319b ba3d 9a00 713e d683 c3be
00000220: 7a4b f53c b0ba 24be e404 833e f20b 9dbe
00000230: 6e68 e639 6040 943d 1639 56be a022 e33d
00000240: 9979 92bb 2998 ce3d eade b3be fe0c ecbc
00000250: f08c 66be 587f ae3e b70e 95be f769 84be
00000260: 1f13 62be 0004 a03e f68a 69be 3d44 3e3e
00000270: a44e c0bd bd9a 5e3d c35d aabe d7a6 b6be
00000280: 0e49 aa3e c30a 0abd 4a98 273d 73f4 c3be
00000290: b276 87be 7ff5 bd3e 03a5 3f3d 0c0c c23e
000002a0: 2ecc babe b463 32be b71c e3bd 44c8 89be
000002b0: 3bfa 283d 4591 323e 6ccc acbd f1d3 e13b
000002c0: 3aaa aebe 2bc9 ea3c 7eea 713e b4f1 b2be
000002d0: b9fa c9bd be94 843e 3d32 0f3d 2377 c6bc
000002e0: 74f0 573d db13 b4bd bff3 84bd 67e5 00be
000002f0: b9d3 1a3e 4b3e 5bbe 6602 6abe 7122 033e
00000300: 091e c1bc 3f56 b93e 49a0 44bd 6554 a23d
00000310: 0683 b2be 92bc 9a3e 7760 03bc fa23 4d3d
00000320: 0723 36be 3fc4 7e3d 2461 9f3e 56b5 5f3e
00000330: bf4b cdbd edf2 bdbc e173 51be 6264 ba3e
00000340: 1ae8 a23e 4521 4b3e 487e 49be 0fc9 c43d
00000350: 663b 1bbe 1254 a13e 6cb4 863e 4d6c 6cbc
00000360: 8ae2 3dbe 8222 edbc 6bf7 a9be 4b07 19be
00000370: 2cf8 b83e f71a a0be 4bb2 97be 0e6a 663d
00000380: 8f23 bdbd 31be debd 746f b3be 757e 953d
00000390: 0c91 003e 266f 1c3e 09ba 16bd 0df7 b43e
000003a0: c337 a7be 3e79 b2bc a983 b6bd 63da b23e
000003b0: 6aaa d5bd 33cc bdbe 7674 72be dc2a 8abd
000003c0: b96b 173e 2b5f 29be 0490 e7bc 22de ec3c
000003d0: 98f8 563e b0cf 433e 6f62 983e f5d5 d0bd
000003e0: eb86 57be 911d 5a3e 85ba 4a3e 0914 653e
000003f0: e21c 41be 8995 893e 77c4 a7be bc9f aabe
0.293476 0.2352323 0.27852127 -0.2715903 -0.3474581 0.1716579 -0.27700603 -0.24093795
0.1652133 -0.3554458 -0.21725251 0.14705889 -0.15508401 0.14982009 -0.18300259 -0.23789018
-0.25944662 -0.20833474 0.22431187 0.3464572 0.029420478 -0.33417046 0.2882486 -0.38710228
0.12916397 0.32528347 -0.108966514 0.19057354 0.1252796 0.35979685 0.32572386 -0.27997264
0.37810063 0.17626134 0.044976644 -0.28029323 -0.16070062 0.31211695 -0.36376053 -0.12262565
-0.28510195 0.19092546 -0.015893914 0.010168012 0.018877827 0.17365117 0.24842678 0.31073776
0.1389993 0.061807934 0.2926752 -0.3889266 -0.08635731 -0.2796318 -0.06890232 0.2876756
0.2853529 -0.37492928 0.085759 -0.34323362 -0.23445916 0.23674929 0.2503939 0.21268578
-0.04534722 -0.1915405 -0.19406462 -0.29087162 0.29451117 0.32496175 -0.047986433 0.13760637
-0.14450541 0.3350877 -0.16986592 -0.12980746 0.090486705 -0.13010953 0.19429266 0.2938266
0.3243806 0.3826773 0.3339079 0.1551374 0.22222453 -0.26010734 -0.095647 -0.33779603
-0.33427483 0.2025349 -0.14257526 -0.21428071 -0.29387945 0.26465994 0.01971989 0.066022836
-0.3019452 -0.15705447 0.35824874 -0.31860027 0.044977304 0.34033948 -0.20921455 0.37959597
0.15494119 0.37822613 0.0859582 0.056962837 0.30348405 -0.29008466 -0.17443793 -0.32275033
0.12583193 0.13804781 0.21628691 0.13232507 -0.37614158 0.25600895 0.347523 0.080390416
0.08326929 -0.06441098 -0.2051989 -0.093485184 0.08906575 -0.3112386 -0.19421764 -0.16275437
-0.115015864 0.17409088 -0.32554692 0.30805102 0.17421614 0.09111632 0.23535386 -0.3818652
0.029943217 -0.1608684 0.2558967 -0.30673176 0.00043946825 0.07238841 -0.20920214 0.110905886
-0.004470062 0.10087616 -0.35131007 -0.028814789 -0.22514701 0.3408153 -0.2911279 -0.25862095
-0.22077607 0.31253052 -0.22806916 0.18580718 -0.093899995 0.05434679 -0.3327466 -0.35674164
0.3325886 -0.03370167 0.04091672 -0.38272437 -0.26457745 0.3710136 0.046788227 0.37899816
-0.36483902 -0.17420846 -0.11089461 -0.26910603 0.041254263 0.17438228 -0.08437428 0.0068917205
-0.34114248 0.028660377 0.23624608 -0.3495003 -0.09862275 0.2589473 0.03496002 -0.02422673
0.05271955 -0.0879285 -0.064918034 -0.1258751 0.15119828 -0.21410482 -0.22852477 0.12806107
-0.023573892 0.36198613 -0.048004422 0.07926253 -0.34865588 0.30221993 -0.0080186045 0.050083138
-0.177868 0.062198874 0.311288 0.21846518 -0.10024213 -0.023187125 -0.2045436 0.3640471
0.31817704 0.1983691 -0.19677079 0.096086614 -0.15159377 0.31509453 0.26309526 -0.014430118
-0.18543449 -0.028947119 -0.33196577 -0.14944188 0.3612684 -0.31270573 -0.29628214 0.056253485
-0.09235298 -0.1087612 -0.3504597 0.072995104 0.12555331 0.15276775 -0.03679851 0.35344735
-0.3265973 -0.021786328 -0.08911831 0.3493224 -0.104328945 -0.37069854 -0.23677239 -0.06746456
0.14787187 -0.1654021 -0.028266914 0.028914515 0.20993268 0.19122195 0.297626 -0.10197059
-0.21047561 0.21300341 0.19797714 0.22370924 -0.18858674 0.268719 -0.32767078 -0.33324993

sequential/dense_1/BiasAdd/ReadVariableOp f4 [32]
00000000: 159f 6dbb 9011 23bb 410a 63bb d3ae ed3a
00000010: 9b47 113b a917 4ebb 76ee f13a 46ab ab3a
00000020: c67d d0ba 35b9 203a 5e0b b7ba 8fe1 f23a
00000030: ba59 ce38 0754 10bb bcc5 15bb e049 eb37
00000040: 60d9 433b 00f6 8c3a 731a 21bb 5079 73bb
00000050: 4ea3 263b 1a48 b43a 2052 72bb 3376 5bbb
00000060: 56f1 68bb 3923 573b 8c0e f8ba e45b edba
00000070: b33a c7ba 7bd5 0e3a 60b3 19bb 0d53 79ba
-0.003625815 -0.0024882294 -0.0034643563 0.0018133767 0.0022167924 -0.0031447208 0.0018457908 0.0013097308
-0.0015906624 0.00061311136 -0.001396518 0.0018530356 9.839558e-05 -0.002202274 -0.0022853455 2.8048584e-05
0.0029884204 0.0010754466 -0.0024582415 -0.0037151165 0.0025426927 0.0013754398 -0.003697522 -0.00334872
-0.0035544238 0.003282739 -0.0018925234 -0.001810905 -0.0015199989 0.0005448681 -0.0023452863 -0.0009510972

sequential/dense_2/BiasAdd/ReadVariableOp f4 [8]
00000000: c0a8 59ba 081a 50bb 819f 253b 22aa 30bb
00000010: 9fd9 23ba be9d 5bbb 7ab0 fc3a ee32 223b
-0.0008303039 -0.0031753797 0.0025272074 -0.0026956876 -0.00062503846 -0.003351077 0.0019278668 0.0024749595

sequential/dense/BiasAdd/ReadVariableOp f4 [64]
00000000: 0000 0000 74f9 ad39 1594 7dbb 89b0 7a3b
00000010: b20c 29bb 1913 93ba 1852 aab8 0000 0000
00000020: 9a53 363b 4a3b fdb8 2cc9 95ba 592d e13a
00000030: d221 2fbb ef43 ecba 665e 8539 344f 5bbb
00000040: 220e 323b f893 81ba 0000 0000 0000 0000
00000050: 4a26 57bb c4f5 853a e0df cb3a 0000 0000
00000060: 0000 0000 c14f ea3a ae2e 323b 310e 5ebb
00000070: 372d 30bb 947a 14ba 4479 97ba 223e 9e3a
00000080: f70b 0d3b 0000 0000 7a3a 23bb f298 f5ba
00000090: 0000 0000 fe17 7fbb 0000 0000 8b63 323a
000000a0: c8c0 113a 8816 b03a 223b d8ba 4884 3838
000000b0: c0b3 11b7 075f aaba 136d 013b 7923 69ba
000000c0: d1af 00bb 50f7 3c39 6a96 70bb 1bad 1dbb
000000d0: a0e9 3a3b fa43 3c3b f407 76ba 0000 0000
000000e0: ca49 18ba 0000 0000 a855 073b c050 05bb
000000f0: 7546 353b 94bc 073b 1c7e eaba 6159 38ba
0.0 0.00033182988 -0.0038693 0.0038252196 -0.002579492 -0.0011220902 -8.121523e-05 0.0
0.0027820827 -0.000120750236 -0.0011427752 0.0017179652 -0.002672304 -0.0018025617 0.0002543807 -0.0033463957
0.0027169068 -0.0009886017 0.0 0.0 -0.0032829219 0.0010220339 0.0015554391 0.0
0.0 0.0017876552 0.0027188468 -0.003388297 -0.002688242 -0.00056640175 -0.0011556526 0.001207296
0.0021522024 0.0 -0.002490668 -0.0018737598 0.0 -0.0038924213 0.0 0.0006804994
0.00055600377 0.0013434449 -0.0016497115 4.3992215e-05 -8.684525e-06 -0.0012998291 0.0019748851 -0.00088935305
-0.0019636045 0.00018021208 -0.0036710748 -0.0024059478 0.00285206 0.002872704 -0.00093853404 0.0
-0.0005809335 0.0 0.002065042 -0.002034232 0.0027660404 0.0020711767 -0.0017890367 -0.00070323615

sequential/dense/MatMul i1 [64, 50] scale=0.0018330934 zero_point=0
00000000: bda4 19e6 151c 9937 9e94 db75 98e3 b9bd
00000010: d5e7 cd6b 866a 402b 1ec4 6a8b aa52 409a
00000020: 1cd8 f418 790f c1c4 3e20 c83e b8cd bfc5
00000030: b2ab ac66 07eb d8d2 785d 73a4 249c 24f0
00000040: bd4e de55 0def bcae 79bd 4d4d 0f58 d6ad
00000050: 2d7c e2fb e7ff 52da 4c6f bf0e 8ec4 84c0
00000060: 070a 6207 c27a 2448 ec51 4d64 9689 4c57
00000070: 8c78 9cfb 7676 2b6e aabd 07f2 0a04 3b6c
00000080: 692f 9e11 9810 4322 5e43 99bf 9db0 254f
00000090: 1bc7 8128 9af7 2e60 cc24 a630 d459 ef47
000000a0: 852f 0d22 7fb4 b17c fd09 0cdb 91df de99
000000b0: 027a 1a98 dfc3 6539 1105 877f 8bf8 429d
000000c0: df12 5a75 ca72 3a88 2f12 5378 67f4 9f2c
000000d0: b18f cc1c 9e82 4305 268e 3f9a 76d5 9930
000000e0: 4e2a 4ebc 988f 6230 5eb8 d725 f65d 6150
000000f0: 4534 bd8f 3a31 de70 d63e e52f 2660 8644
-0.122817256 -0.16864459 0.045827333 -0.047660425 0.03849496 0.051326614 -0.18880862 0.10082013
-0.17964315 -0.19797409 -0.06782445 0.21447192 -0.1906417 -0.053159706 -0.13014963 -0.122817256
-0.078823015 -0.045827333 -0.09348776 0.19614099 -0.22363739 0.1943079 0.117317975 0.078823015
0.054992802 -0.109985605 0.1943079 -0.21447192 -0.15764603 0.15031366 0.117317975 -0.18697552
0.051326614 -0.073323734 -0.02199712 0.04399424 0.22180429 0.027496401 -0.11548488 -0.109985605
0.11365179 0.058658987 -0.10265323 0.11365179 -0.13198271 -0.09348776 -0.11915107 -0.10815251
-0.14298128 -0.15581293 -0.15397984 0.18697552 0.0128316535 -0.03849496 -0.073323734 -0.084322296
0.21997121 0.17047769 0.21080573 -0.16864459 0.06599136 -0.18330933 0.06599136 -0.029329494
-0.122817256 0.14298128 -0.062325172 0.15581293 0.023830213 -0.031162586 -0.124650344 -0.15031366
0.22180429 -0.122817256 0.1411482 0.1411482 0.027496401 0.16131222 -0.07698992 -0.15214674
0.0824892 0.22730358 -0.054992802 -0.009165467 -0.045827333 -0.0018330934 0.15031366 -0.06965755
0.1393151 0.20347336 -0.11915107 0.025663307 -0.20897265 -0.109985605 -0.22730358 -0.117317975
0.0128316535 0.018330934 0.17964315 0.0128316535 -0.11365179 0.22363739 0.06599136 0.13198271
-0.036661867 0.14848056 0.1411482 0.18330933 -0.1943079 -0.21813811 0.1393151 0.15947913
-0.21263883 0.21997121 -0.18330933 -0.009165467 0.21630502 0.21630502 0.078823015 0.20164026
-0.15764603 -0.122817256 0.0128316535 -0.025663307 0.018330934 0.0073323734 0.10815251 0.19797409
0.1924748 0.086155385 -0.17964315 0.031162586 -0.1906417 0.029329494 0.122817256 0.062325172
0.17231077 0.122817256 -0.18880862 -0.11915107 -0.18147624 -0.14664747 0.06782445 0.14481437
0.04949352 -0.104486324 -0.23280285 0.073323734 -0.18697552 -0.01649784 0.084322296 0.17597696
-0.09532085 0.06599136 -0.1649784 0.08798848 -0.08065611 0.1631453 -0.031162586 0.13014963
-0.22547048 0.086155385 0.023830213 0.062325172 0.23280285 -0.1393151 -0.14481437 0.22730358
-0.00549928 0.01649784 0.02199712 -0.06782445 -0.20347336 -0.06049208 -0.062325172 -0.18880862
0.0036661867 0.22363739 0.047660425 -0.1906417 -0.06049208 -0.11181869 0.18514243 0.104486324
0.031162586 0.009165467 -0.22180429 0.23280285 -0.21447192 -0.014664747 0.12098416 -0.18147624
-0.06049208 0.03299568 0.1649784 0.21447192 -0.09898704 0.20897265 0.10631941 -0.21997121
0.086155385 0.03299568 0.15214674 0.21997121 0.18880862 -0.02199712 -0.17781006 0.08065611
-0.14481437 -0.20713955 -0.09532085 0.051326614 -0.17964315 -0.23096976 0.122817256 0.009165467
0.06965755 -0.20897265 0.11548488 -0.18697552 0.21630502 -0.078823015 -0.18880862 0.08798848
0.14298128 0.07698992 0.14298128 -0.124650344 -0.1906417 -0.20713955 0.17964315 0.08798848
0.17231077 -0.13198271 -0.07515683 0.06782445 -0.018330934 0.17047769 0.17781006 0.14664747
0.12648344 0.09532085 -0.122817256 -0.20713955 0.10631941 0.08982158 -0.062325172 0.20530646
-0.07698992 0.11365179 -0.04949352 0.086155385 0.06965755 0.17597696 -0.22363739 0.124650344

sequential/dense_1/MatMul i1 [32, 64] scale=0.0019930005 zero_point=0
00000000: 6cb8 09aa 3c15 f5f6 e6f8 ff8e e400 50a7
00000010: 6bee a95c 35a6 10a3 d5af a155 d88c 3ffc
00000020: a227 d968 99a1 6045 f792 ae8b c065 5aae
00000030: bf75 0535 54a1 0ce1 a3e5 fb9a 8caa 0b1a
00000040: 7bbc 6d5f 1946 c233 9246 b73f a632 cba2
00000050: 07a4 6620 ddb3 2703 3423 ff2e e047 58f1
00000060: dd48 70b8 8cd0 bb56 2136 dd9a 5ffc 3ddc
00000070: f334 2686 7121 eb40 daeb 0458 e6dd 2d71
00000080: 8c4f 0f87 e890 226f e869 e7f0 da8c e167
00000090: dc09 6a78 525e 0de0 4432 8d07 46a1 abd7
000000a0: 90eb f15c ae1b 022a 8df0 a4d1 69ae 96b5
000000b0: d1c9 3257 0ee6 33c9 7d64 cd16 2858 f81f
000000c0: 034d 2d95 3ca5 e153 c68c 51ab e40c ffd4
000000d0: 019a 772b a1b7 aea4 40d3 a9a9 9cd3 88b3
000000e0: 6c92 5d9e 9ea2 7a4b 5340 422f 8e85 480b
000000f0: 3184 5402 df24 5bd5 fdba 44b2 2242 8ba2
0.21524405 -0.14349604 0.017937005 -0.17139804 0.11958003 0.04185301 -0.021923006 -0.019930005
-0.051818013 -0.015944004 -0.0019930005 -0.22720206 -0.055804014 0.0 0.15944004 -0.17737705
0.21325105 -0.03587401 -0.17339104 0.18335605 0.10562903 -0.17937005 0.031888008 -0.18534905
-0.08569902 -0.16143304 -0.18933505 0.16940504 -0.07972002 -0.23118806 0.12555903 -0.007972002
-0.18734205 0.07772702 -0.07772702 0.20727205 -0.20527905 -0.18933505 0.19132805 0.13751704
-0.017937005 -0.21923006 -0.16342604 -0.23318106 -0.12755203 0.20129305 0.17937005 -0.16342604
-0.12954503 0.23318106 0.009965003 0.10562903 0.16741204 -0.18933505 0.023916006 -0.061783016
-0.18534905 -0.053811014 -0.009965003 -0.20328605 -0.23118806 -0.17139804 0.021923006 0.051818013
0.24513906 -0.13552403 0.21723706 0.18933505 0.049825013 0.13951004 -0.12356603 0.101643026
-0.21923006 0.13951004 -0.14548904 0.12555903 -0.17937005 0.099650025 -0.10562903 -0.18734205
0.013951004 -0.18335605 0.20328605 0.063776016 -0.06975502 -0.15346104 0.07772702 0.0059790015
0.10363603 0.06975502 -0.0019930005 0.09167802 -0.063776016 0.14150304 0.17538404 -0.029895008
-0.06975502 0.14349604 0.22321606 -0.14349604 -0.23118806 -0.095664024 -0.13751704 0.17139804
0.06576902 0.10762203 -0.06975502 -0.20328605 0.18933505 -0.007972002 0.12157303 -0.07174802
-0.025909007 0.10363603 0.07573402 -0.24314606 0.22520906 0.06576902 -0.04185301 0.12755203
-0.07573402 -0.04185301 0.007972002 0.17538404 -0.051818013 -0.06975502 0.08968502 0.22520906
-0.23118806 0.15744704 0.029895008 -0.24115306 -0.047832012 -0.22321606 0.06776202 0.22122306
-0.047832012 0.20926505 -0.049825013 -0.031888008 -0.07573402 -0.23118806 -0.061783016 0.20527905
-0.07174802 0.017937005 0.21125805 0.23916006 0.16342604 0.18734205 0.025909007 -0.063776016
0.13552403 0.099650025 -0.22919506 0.013951004 0.13951004 -0.18933505 -0.16940504 -0.08171302
-0.22321606 -0.04185301 -0.029895008 0.18335605 -0.16342604 0.053811014 0.003986001 0.08370602
-0.22919506 -0.031888008 -0.18335605 -0.093671024 0.20926505 -0.16342604 -0.21125805 -0.14947504
-0.093671024 -0.10961503 0.099650025 0.17339104 0.027902007 -0.051818013 0.101643026 -0.10961503
0.24912506 0.19930005 -0.101643026 0.04384601 0.07972002 0.17538404 -0.015944004 0.061783016
0.0059790015 0.15346104 0.08968502 -0.21325105 0.11958003 -0.18136305 -0.061783016 0.16541904
-0.11559403 -0.23118806 0.16143304 -0.16940504 -0.055804014 0.023916006 -0.0019930005 -0.08769202
0.0019930005 -0.20328605 0.23716706 0.08569902 -0.18933505 -0.14548904 -0.16342604 -0.18335605
0.12755203 -0.08968502 -0.17339104 -0.17339104 -0.19930005 -0.08968502 -0.23916006 -0.15346104
0.21524405 -0.21923006 0.18534905 -0.19531405 -0.19531405 -0.18734205 0.24314606 0.14947504
0.16541904 0.12755203 0.13153803 0.093671024 -0.22720206 -0.24513906 0.14349604 0.021923006
0.097657025 -0.24713206 0.16741204 0.003986001 -0.06576902 0.07174802 0.18136305 -0.08569902
-0.0059790015 -0.13951004 0.13552403 -0.15545404 0.06776202 0.13153803 -0.23318106 -0.18734205
